…
    "        cls_output = outputs.last_hidden_state[:, 0, :]  # CLS ìœ„ì¹˜\n",
    "        pred_output = self.classifier(cls_output)\n",
    "        return pred_output\n"
   ]
  },
  {
   "cell_type": "code",
   "execution_count": 41,
   "metadata": {},
   "outputs": [],
   "source": [
    "model = MNLIClassifier(model_name)"
   ]
  },
  {
   "cell_type": "code",
   "execution_count": 42,
   "metadata": {},
   "outputs": [
    {
     "name": "stdout",
     "output_type": "stream",
     "text": [
      "MNLIClassifier(\n",
      "  (pretrained_model): DistilBertModel(\n",
      "    (embeddings): Embeddings(\n",
      "      (word_embeddings): Embedding(30522, 768, padding_idx=0)\n",
      "      (position_embeddings): Embedding(512, 768)\n",
      "      (LayerNorm): LayerNorm((768,), eps=1e-12, elementwise_affine=True)\n",
      "      (dropout): Dropout(p=0.1, inplace=False)\n",
      "    )\n",
      "    (transformer): Transformer(\n",
      "      (layer): ModuleList(\n",
      "        (0-5): 6 x TransformerBlock(\n",
      "          (attention): DistilBertSdpaAttention(\n",
      "            (dropout): Dropout(p=0.1, inplace=False)\n",
      "            (q_lin): Linear(in_features=768, out_features=768, bias=True)\n",
      "            (k_lin): Linear(in_features=768, out_features=768, bias=True)\n",
      "            (v_lin): Linear(in_features=768, out_features=768, bias=True)\n",
      "            (out_lin): Linear(in_features=768, out_features=768, bias=True)\n",
      "          )\n",
      "          (sa_layer_norm): LayerNorm((768,), eps=1e-12, elementwise_affine=True)\n",
      "          (ffn): FFN(\n",
      "            (dropout): Dropout(p=0.1, inplace=False)\n",
      "            (lin1): Linear(in_features=768, out_features=3072, bias=True)\n",
      "            (lin2): Linear(in_features=3072, out_features=768, bias=True)\n",
      "            (activation): GELUActivation()\n",
      "          )\n",
      "          (output_layer_norm): LayerNorm((768,), eps=1e-12, elementwise_affine=True)\n",
      "        )\n",
      "      )\n",
      "    )\n",
      "  )\n",
      "  (classifier): Linear(in_features=768, out_features=3, bias=True)\n",
      ")\n"
     ]
    }
   ],
   "source": [
    "print(model)"
   ]
  },
  {
   "cell_type": "code",
   "execution_count": 43,
   "metadata": {},
   "outputs": [],
   "source": [
    "for param in model.pretrained_model.parameters():\n",
    "    param.required_grad=False"
   ]
  },
  {
   "cell_type": "markdown",
   "metadata": {},
   "source": [
    "### 4. finetuning"
…
    "            attention_mask=attention_mask\n",
    "        )\n",
    "        cls_output = outputs.last_hidden_state[:, 0, :]  # CLS ìœ„ì¹˜\n",
    "        cls_output = self.dropout(cls_output)\n",
    "        pred_output = self.classifier(cls_output)\n",
    "        return pred_output\n"
   ]
  },
  {
   "cell_type": "code",
   "execution_count": 53,
   "metadata": {},
   "outputs": [
    {
     "name": "stdout",
     "output_type": "stream",
     "text": [
      "** load pretrained model distilbert-base-uncased **\n",
      "DistilBertModel(\n",
      "  (embeddings): Embeddings(\n",
      "    (word_embeddings): Embedding(30522, 768, padding_idx=0)\n",
      "    (position_embeddings): Embedding(512, 768)\n",
      "    (LayerNorm): LayerNorm((768,), eps=1e-12, elementwise_affine=True)\n",
      "    (dropout): Dropout(p=0.1, inplace=False)\n",
      "  )\n",
      "  (transformer): Transformer(\n",
      "    (layer): ModuleList(\n",
      "      (0-5): 6 x TransformerBlock(\n",
      "        (attention): DistilBertSdpaAttention(\n",
      "          (dropout): Dropout(p=0.1, inplace=False)\n",
      "          (q_lin): Linear(in_features=768, out_features=768, bias=True)\n",
      "          (k_lin): Linear(in_features=768, out_features=768, bias=True)\n",
      "          (v_lin): Linear(in_features=768, out_features=768, bias=True)\n",
      "          (out_lin): Linear(in_features=768, out_features=768, bias=True)\n",
      "        )\n",
      "        (sa_layer_norm): LayerNorm((768,), eps=1e-12, elementwise_affine=True)\n",
      "        (ffn): FFN(\n",
      "          (dropout): Dropout(p=0.1, inplace=False)\n",
      "          (lin1): Linear(in_features=768, out_features=3072, bias=True)\n",
      "          (lin2): Linear(in_features=3072, out_features=768, bias=True)\n",
      "          (activation): GELUActivation()\n",
      "        )\n",
      "        (output_layer_norm): LayerNorm((768,), eps=1e-12, elementwise_affine=True)\n",
      "      )\n",
      "    )\n",
      "  )\n",
      ")\n"
     ]
    }
   ],
   "source": [
    "model2 = MNLIClassifierWithDropout(model_name)\n",
    "model2 = model2.to('cuda')"
   ]
  },
  {
   "cell_type": "code",
   "execution_count": 54,
   "metadata": {},
   "outputs": [],
   "source": [
    "for param in model2.pretrained_model.parameters():\n",
…
